…
2024-01-10 11:09:07,467 INFO: Number of val images/folders in Set14: 14
2024-01-10 11:09:07,473 INFO: Dataset [PairedImageDataset] - BSD100 is built.
2024-01-10 11:09:07,474 INFO: Number of val images/folders in BSD100: 100
2024-01-10 11:09:07,480 INFO: Dataset [PairedImageDataset] - Urban100 is built.
2024-01-10 11:09:07,481 INFO: Number of val images/folders in Urban100: 100
2024-01-10 11:09:07,488 INFO: Dataset [PairedImageDataset] - Manga109 is built.
2024-01-10 11:09:07,488 INFO: Number of val images/folders in Manga109: 109
2024-01-10 11:09:49,655 INFO: Network: SwinIR, with parameters: 10,304,383
2024-01-10 11:09:49,655 INFO: SwinIR(
  (conv_first): Conv2d(3, 180, kernel_size=(3, 3), stride=(1, 1), padding=(1, 1))
  (patch_embed): PatchEmbed(
    (norm): LayerNorm((180,), eps=1e-05, elementwise_affine=True)
  )
  (patch_unembed): PatchUnEmbed()
  (pos_drop): Dropout(p=0.0, inplace=False)
  (layers): ModuleList(
    (0): RSTB(
      (residual_group): BasicLayer(
        (blocks): ModuleList(
          (0): SwinTransformerBlock(
            (norm1): LayerNorm((180,), eps=1e-05, elementwise_affine=True)
            (attn): TokenMixer(
              (msa): WindowAttention(
                (qkv): Linear(in_features=90, out_features=270, bias=True)
                (attn_drop): Dropout(p=0.0, inplace=False)
                (proj): Linear(in_features=90, out_features=90, bias=True)
                (proj_drop): Dropout(p=0.0, inplace=False)
                (softmax): Softmax(dim=-1)
              )
              (cnn): TokenMixerCNN(
                (conv1): Sequential(
                  (0): Conv2d(90, 90, kernel_size=(1, 1), stride=(1, 1), groups=90)
                )
                (conv3): Sequential(
                  (0): Conv2d(90, 90, kernel_size=(3, 3), stride=(1, 1), padding=(1, 1), groups=90)
                )
                (conv5): Sequential(
                  (0): Conv2d(90, 90, kernel_size=(5, 5), stride=(1, 1), padding=(2, 2), groups=90)
                )
                (conv7): Sequential(
                  (0): Conv2d(90, 90, kernel_size=(7, 7), stride=(1, 1), padding=(3, 3), groups=90)
                )
                (gelu): GELU(approximate='none')
                (conv1x1): Conv2d(90, 90, kernel_size=(1, 1), stride=(1, 1))
                (act): GELU(approximate='none')
              )
            )
            (drop_path): Identity()
            (norm2): LayerNorm((180,), eps=1e-05, elementwise_affine=True)
            (mlp): Mlp(
              (fc1): Linear(in_features=180, out_features=360, bias=True)
              (act): GELU(approximate='none')
              (dwconv): dwconv(
                (conv1): Sequential(
                  (0): Conv2d(360, 360, kernel_size=(1, 1), stride=(1, 1), groups=360)
                  (1): GELU(approximate='none')
                )
                (conv3): Sequential(
                  (0): Conv2d(360, 360, kernel_size=(3, 3), stride=(1, 1), padding=(1, 1), groups=360)
                  (1): GELU(approximate='none')
                )
                (conv5): Sequential(
                  (0): Conv2d(360, 360, kernel_size=(5, 5), stride=(1, 1), padding=(2, 2), groups=360)
                  (1): GELU(approximate='none')
                )
                (conv7): Sequential(
                  (0): Conv2d(360, 360, kernel_size=(7, 7), stride=(1, 1), padding=(3, 3), groups=360)
                  (1): GELU(approximate='none')
                )
              )
              (fc2): Linear(in_features=360, out_features=180, bias=True)
              (drop): Dropout(p=0.0, inplace=False)
            )
          )
          (1-5): 5 x SwinTransformerBlock(
            (norm1): LayerNorm((180,), eps=1e-05, elementwise_affine=True)
            (attn): TokenMixer(
              (msa): WindowAttention(
                (qkv): Linear(in_features=90, out_features=270, bias=True)
                (attn_drop): Dropout(p=0.0, inplace=False)
                (proj): Linear(in_features=90, out_features=90, bias=True)
                (proj_drop): Dropout(p=0.0, inplace=False)
                (softmax): Softmax(dim=-1)
              )
              (cnn): TokenMixerCNN(
                (conv1): Sequential(
                  (0): Conv2d(90, 90, kernel_size=(1, 1), stride=(1, 1), groups=90)
                )
                (conv3): Sequential(
                  (0): Conv2d(90, 90, kernel_size=(3, 3), stride=(1, 1), padding=(1, 1), groups=90)
                )
                (conv5): Sequential(
                  (0): Conv2d(90, 90, kernel_size=(5, 5), stride=(1, 1), padding=(2, 2), groups=90)
                )
                (conv7): Sequential(
                  (0): Conv2d(90, 90, kernel_size=(7, 7), stride=(1, 1), padding=(3, 3), groups=90)
                )
                (gelu): GELU(approximate='none')
                (conv1x1): Conv2d(90, 90, kernel_size=(1, 1), stride=(1, 1))
                (act): GELU(approximate='none')
              )
            )
            (drop_path): DropPath()
            (norm2): LayerNorm((180,), eps=1e-05, elementwise_affine=True)
            (mlp): Mlp(
              (fc1): Linear(in_features=180, out_features=360, bias=True)
              (act): GELU(approximate='none')
              (dwconv): dwconv(
                (conv1): Sequential(
                  (0): Conv2d(360, 360, kernel_size=(1, 1), stride=(1, 1), groups=360)
                  (1): GELU(approximate='none')
                )
                (conv3): Sequential(
                  (0): Conv2d(360, 360, kernel_size=(3, 3), stride=(1, 1), padding=(1, 1), groups=360)
                  (1): GELU(approximate='none')
                )
                (conv5): Sequential(
                  (0): Conv2d(360, 360, kernel_size=(5, 5), stride=(1, 1), padding=(2, 2), groups=360)
                  (1): GELU(approximate='none')
                )
                (conv7): Sequential(
                  (0): Conv2d(360, 360, kernel_size=(7, 7), stride=(1, 1), padding=(3, 3), groups=360)
                  (1): GELU(approximate='none')
                )
              )
              (fc2): Linear(in_features=360, out_features=180, bias=True)
              (drop): Dropout(p=0.0, inplace=False)
            )
          )
        )
      )
      (conv): Conv2d(180, 180, kernel_size=(3, 3), stride=(1, 1), padding=(1, 1))
      (patch_embed): PatchEmbed()
      (patch_unembed): PatchUnEmbed()
    )
    (1-5): 5 x RSTB(
      (residual_group): BasicLayer(
        (blocks): ModuleList(
          (0-5): 6 x SwinTransformerBlock(
            (norm1): LayerNorm((180,), eps=1e-05, elementwise_affine=True)
            (attn): TokenMixer(
              (msa): WindowAttention(
                (qkv): Linear(in_features=90, out_features=270, bias=True)
                (attn_drop): Dropout(p=0.0, inplace=False)
                (proj): Linear(in_features=90, out_features=90, bias=True)
                (proj_drop): Dropout(p=0.0, inplace=False)
                (softmax): Softmax(dim=-1)
              )
              (cnn): TokenMixerCNN(
                (conv1): Sequential(
                  (0): Conv2d(90, 90, kernel_size=(1, 1), stride=(1, 1), groups=90)
                )
                (conv3): Sequential(
                  (0): Conv2d(90, 90, kernel_size=(3, 3), stride=(1, 1), padding=(1, 1), groups=90)
                )
                (conv5): Sequential(
                  (0): Conv2d(90, 90, kernel_size=(5, 5), stride=(1, 1), padding=(2, 2), groups=90)
                )
                (conv7): Sequential(
                  (0): Conv2d(90, 90, kernel_size=(7, 7), stride=(1, 1), padding=(3, 3), groups=90)
                )
                (gelu): GELU(approximate='none')
                (conv1x1): Conv2d(90, 90, kernel_size=(1, 1), stride=(1, 1))
                (act): GELU(approximate='none')
              )
            )
            (drop_path): DropPath()
            (norm2): LayerNorm((180,), eps=1e-05, elementwise_affine=True)
            (mlp): Mlp(
              (fc1): Linear(in_features=180, out_features=360, bias=True)
              (act): GELU(approximate='none')
              (dwconv): dwconv(
                (conv1): Sequential(
                  (0): Conv2d(360, 360, kernel_size=(1, 1), stride=(1, 1), groups=360)
                  (1): GELU(approximate='none')
                )
                (conv3): Sequential(
                  (0): Conv2d(360, 360, kernel_size=(3, 3), stride=(1, 1), padding=(1, 1), groups=360)
                  (1): GELU(approximate='none')
                )
                (conv5): Sequential(
                  (0): Conv2d(360, 360, kernel_size=(5, 5), stride=(1, 1), padding=(2, 2), groups=360)
                  (1): GELU(approximate='none')
                )
                (conv7): Sequential(
                  (0): Conv2d(360, 360, kernel_size=(7, 7), stride=(1, 1), padding=(3, 3), groups=360)
                  (1): GELU(approximate='none')
                )
              )
              (fc2): Linear(in_features=360, out_features=180, bias=True)
              (drop): Dropout(p=0.0, inplace=False)
            )
          )
        )
      )
      (conv): Conv2d(180, 180, kernel_size=(3, 3), stride=(1, 1), padding=(1, 1))
      (patch_embed): PatchEmbed()
      (patch_unembed): PatchUnEmbed()
    )
  )
  (norm): LayerNorm((180,), eps=1e-05, elementwise_affine=True)
  (conv_after_body): Conv2d(180, 180, kernel_size=(3, 3), stride=(1, 1), padding=(1, 1))
  (conv_before_upsample): Sequential(
    (0): Conv2d(180, 64, kernel_size=(3, 3), stride=(1, 1), padding=(1, 1))
    (1): LeakyReLU(negative_slope=0.01, inplace=True)
  )
  (upsample): Upsample(
    (0): Conv2d(64, 576, kernel_size=(3, 3), stride=(1, 1), padding=(1, 1))
    (1): PixelShuffle(upscale_factor=3)
  )
  (conv_last): Conv2d(64, 3, kernel_size=(3, 3), stride=(1, 1), padding=(1, 1))
)
2024-01-10 11:09:57,003 INFO: Loading SwinIR model from experiments/pretrained_models/Ours/split_msa_cnn_concat.pth, with param key: [params].
2024-01-10 11:10:00,198 WARNING: Size different, ignore [upsample.0.bias]: crt_net: torch.Size([576]); load_net: torch.Size([256])
2024-01-10 11:10:00,200 WARNING: Size different, ignore [upsample.0.weight]: crt_net: torch.Size([576, 64, 3, 3]); load_net: torch.Size([256, 64, 3, 3])
…
