…
2023-12-07 10:27:06,044 INFO: Number of val images/folders in Set14: 14
2023-12-07 10:27:06,104 INFO: Dataset [PairedImageDataset] - BSD100 is built.
2023-12-07 10:27:06,104 INFO: Number of val images/folders in BSD100: 100
2023-12-07 10:27:06,201 INFO: Dataset [PairedImageDataset] - Urban100 is built.
2023-12-07 10:27:06,201 INFO: Number of val images/folders in Urban100: 100
2023-12-07 10:27:06,267 INFO: Dataset [PairedImageDataset] - Manga109 is built.
2023-12-07 10:27:06,267 INFO: Number of val images/folders in Manga109: 109
2023-12-07 10:27:17,442 INFO: Network: SwinIR, with parameters: 17,681,687
2023-12-07 10:27:17,442 INFO: SwinIR(
  (conv_first): Conv2d(3, 180, kernel_size=(3, 3), stride=(1, 1), padding=(1, 1))
  (patch_embed): PatchEmbed(
    (norm): LayerNorm((180,), eps=1e-05, elementwise_affine=True)
  )
  (patch_unembed): PatchUnEmbed()
  (pos_drop): Dropout(p=0.0, inplace=False)
  (layers): ModuleList(
    (0): RSTB(
      (residual_group): BasicLayer(
        (blocks): ModuleList(
          (0): SwinTransformerBlock(
            (norm1): LayerNorm((180,), eps=1e-05, elementwise_affine=True)
            (attn): TokenMixer(
              (msa): WindowAttention(
                (qkv): Linear(in_features=90, out_features=270, bias=True)
                (attn_drop): Dropout(p=0.0, inplace=False)
                (proj): Linear(in_features=90, out_features=90, bias=True)
                (proj_drop): Dropout(p=0.0, inplace=False)
                (softmax): Softmax(dim=-1)
              )
              (cnn): TokenMixerCNN(
                (ecb): ECB(
                  (conv3x3): Conv2d(90, 90, kernel_size=(3, 3), stride=(1, 1), padding=(1, 1))
                  (conv1x1_3x3): Sequential(
                    (0): Conv2d(90, 180, kernel_size=(1, 1), stride=(1, 1))
                    (1): Conv2d(180, 90, kernel_size=(3, 3), stride=(1, 1), padding=(1, 1))
                  )
                  (conv1x1_sbx): Sequential(
                    (0): Conv2d(90, 90, kernel_size=(1, 1), stride=(1, 1))
                    (1): Conv2d(90, 90, kernel_size=(3, 3), stride=(1, 1), padding=(1, 1), groups=90, bias=False)
                  )
                  (conv1x1_sby): Sequential(
                    (0): Conv2d(90, 90, kernel_size=(1, 1), stride=(1, 1))
                    (1): Conv2d(90, 90, kernel_size=(3, 3), stride=(1, 1), padding=(1, 1), groups=90, bias=False)
                  )
                  (conv1x1_lpl): Sequential(
                    (0): Conv2d(90, 90, kernel_size=(1, 1), stride=(1, 1))
                    (1): Conv2d(90, 90, kernel_size=(3, 3), stride=(1, 1), padding=(1, 1), groups=90, bias=False)
                  )
                  (act): GELU(approximate='none')
                )
              )
            )
            (drop_path): Identity()
            (norm2): LayerNorm((180,), eps=1e-05, elementwise_affine=True)
            (mlp): Mlp(
              (fc1): Linear(in_features=180, out_features=360, bias=True)
              (act): GELU(approximate='none')
              (fc2): Linear(in_features=360, out_features=180, bias=True)
              (drop): Dropout(p=0.0, inplace=False)
            )
          )
          (1-5): 5 x SwinTransformerBlock(
            (norm1): LayerNorm((180,), eps=1e-05, elementwise_affine=True)
            (attn): TokenMixer(
              (msa): WindowAttention(
                (qkv): Linear(in_features=90, out_features=270, bias=True)
                (attn_drop): Dropout(p=0.0, inplace=False)
                (proj): Linear(in_features=90, out_features=90, bias=True)
                (proj_drop): Dropout(p=0.0, inplace=False)
                (softmax): Softmax(dim=-1)
              )
              (cnn): TokenMixerCNN(
                (ecb): ECB(
                  (conv3x3): Conv2d(90, 90, kernel_size=(3, 3), stride=(1, 1), padding=(1, 1))
                  (conv1x1_3x3): Sequential(
                    (0): Conv2d(90, 180, kernel_size=(1, 1), stride=(1, 1))
                    (1): Conv2d(180, 90, kernel_size=(3, 3), stride=(1, 1), padding=(1, 1))
                  )
                  (conv1x1_sbx): Sequential(
                    (0): Conv2d(90, 90, kernel_size=(1, 1), stride=(1, 1))
                    (1): Conv2d(90, 90, kernel_size=(3, 3), stride=(1, 1), padding=(1, 1), groups=90, bias=False)
                  )
                  (conv1x1_sby): Sequential(
                    (0): Conv2d(90, 90, kernel_size=(1, 1), stride=(1, 1))
                    (1): Conv2d(90, 90, kernel_size=(3, 3), stride=(1, 1), padding=(1, 1), groups=90, bias=False)
                  )
                  (conv1x1_lpl): Sequential(
                    (0): Conv2d(90, 90, kernel_size=(1, 1), stride=(1, 1))
                    (1): Conv2d(90, 90, kernel_size=(3, 3), stride=(1, 1), padding=(1, 1), groups=90, bias=False)
                  )
                  (act): GELU(approximate='none')
                )
              )
            )
            (drop_path): DropPath()
            (norm2): LayerNorm((180,), eps=1e-05, elementwise_affine=True)
            (mlp): Mlp(
              (fc1): Linear(in_features=180, out_features=360, bias=True)
              (act): GELU(approximate='none')
              (fc2): Linear(in_features=360, out_features=180, bias=True)
              (drop): Dropout(p=0.0, inplace=False)
            )
          )
        )
      )
      (conv): Conv2d(180, 180, kernel_size=(3, 3), stride=(1, 1), padding=(1, 1))
      (patch_embed): PatchEmbed()
      (patch_unembed): PatchUnEmbed()
    )
    (1-5): 5 x RSTB(
      (residual_group): BasicLayer(
        (blocks): ModuleList(
          (0-5): 6 x SwinTransformerBlock(
            (norm1): LayerNorm((180,), eps=1e-05, elementwise_affine=True)
            (attn): TokenMixer(
              (msa): WindowAttention(
                (qkv): Linear(in_features=90, out_features=270, bias=True)
                (attn_drop): Dropout(p=0.0, inplace=False)
                (proj): Linear(in_features=90, out_features=90, bias=True)
                (proj_drop): Dropout(p=0.0, inplace=False)
                (softmax): Softmax(dim=-1)
              )
              (cnn): TokenMixerCNN(
                (ecb): ECB(
                  (conv3x3): Conv2d(90, 90, kernel_size=(3, 3), stride=(1, 1), padding=(1, 1))
                  (conv1x1_3x3): Sequential(
                    (0): Conv2d(90, 180, kernel_size=(1, 1), stride=(1, 1))
                    (1): Conv2d(180, 90, kernel_size=(3, 3), stride=(1, 1), padding=(1, 1))
                  )
                  (conv1x1_sbx): Sequential(
                    (0): Conv2d(90, 90, kernel_size=(1, 1), stride=(1, 1))
                    (1): Conv2d(90, 90, kernel_size=(3, 3), stride=(1, 1), padding=(1, 1), groups=90, bias=False)
                  )
                  (conv1x1_sby): Sequential(
                    (0): Conv2d(90, 90, kernel_size=(1, 1), stride=(1, 1))
                    (1): Conv2d(90, 90, kernel_size=(3, 3), stride=(1, 1), padding=(1, 1), groups=90, bias=False)
                  )
                  (conv1x1_lpl): Sequential(
                    (0): Conv2d(90, 90, kernel_size=(1, 1), stride=(1, 1))
                    (1): Conv2d(90, 90, kernel_size=(3, 3), stride=(1, 1), padding=(1, 1), groups=90, bias=False)
                  )
                  (act): GELU(approximate='none')
                )
              )
            )
            (drop_path): DropPath()
            (norm2): LayerNorm((180,), eps=1e-05, elementwise_affine=True)
            (mlp): Mlp(
              (fc1): Linear(in_features=180, out_features=360, bias=True)
              (act): GELU(approximate='none')
              (fc2): Linear(in_features=360, out_features=180, bias=True)
              (drop): Dropout(p=0.0, inplace=False)
            )
          )
        )
      )
      (conv): Conv2d(180, 180, kernel_size=(3, 3), stride=(1, 1), padding=(1, 1))
      (patch_embed): PatchEmbed()
      (patch_unembed): PatchUnEmbed()
    )
  )
  (norm): LayerNorm((180,), eps=1e-05, elementwise_affine=True)
  (conv_after_body): Conv2d(180, 180, kernel_size=(3, 3), stride=(1, 1), padding=(1, 1))
  (conv_before_upsample): Sequential(
    (0): Conv2d(180, 64, kernel_size=(3, 3), stride=(1, 1), padding=(1, 1))
    (1): LeakyReLU(negative_slope=0.01, inplace=True)
  )
  (upsample): Upsample(
    (0): Conv2d(64, 256, kernel_size=(3, 3), stride=(1, 1), padding=(1, 1))
    (1): PixelShuffle(upscale_factor=2)
  )
  (conv_last): Conv2d(64, 3, kernel_size=(3, 3), stride=(1, 1), padding=(1, 1))
)
2023-12-07 10:27:25,341 INFO: Loading SwinIR model from /share3/home/renzihao/Pipeline/experiments/Doing/021_SwinIR_Split_MSA+ECB_DIV2K_P48W8/weights/net_g_90000.pth, with param key: [params].
2023-12-07 10:27:25,501 INFO: Use Exponential Moving Average with decay: 0.999
2023-12-07 10:27:25,712 INFO: Loading SwinIR model from /share3/home/renzihao/Pipeline/experiments/Doing/021_SwinIR_Split_MSA+ECB_DIV2K_P48W8/weights/net_g_90000.pth, with param key: [params_ema].
…
