…
2023-12-22 09:26:31,889 INFO: Number of val images/folders in Set14: 14
2023-12-22 09:26:31,961 INFO: Dataset [PairedImageDataset] - BSD100 is built.
2023-12-22 09:26:31,962 INFO: Number of val images/folders in BSD100: 100
2023-12-22 09:26:31,969 INFO: Dataset [PairedImageDataset] - Urban100 is built.
2023-12-22 09:26:31,969 INFO: Number of val images/folders in Urban100: 100
2023-12-22 09:26:32,012 INFO: Dataset [PairedImageDataset] - Manga109 is built.
2023-12-22 09:26:32,012 INFO: Number of val images/folders in Manga109: 109
2023-12-22 09:26:43,814 INFO: Network: SwinIR, with parameters: 17,002,763
2023-12-22 09:26:43,814 INFO: SwinIR(
  (conv_first): Conv2d(3, 240, kernel_size=(3, 3), stride=(1, 1), padding=(1, 1))
  (patch_embed): PatchEmbed(
    (norm): LayerNorm((240,), eps=1e-05, elementwise_affine=True)
  )
  (patch_unembed): PatchUnEmbed()
  (pos_drop): Dropout(p=0.0, inplace=False)
  (layers): ModuleList(
    (0): RSTB(
      (residual_group): BasicLayer(
        (blocks): ModuleList(
          (0): SwinTransformerBlock(
            (norm1): LayerNorm((240,), eps=1e-05, elementwise_affine=True)
            (attn): WindowAttention(
              (qkv): Linear(in_features=120, out_features=360, bias=True)
              (attn_drop): Dropout(p=0.0, inplace=False)
              (proj): Linear(in_features=120, out_features=120, bias=True)
              (proj_drop): Dropout(p=0.0, inplace=False)
              (softmax): Softmax(dim=-1)
            )
            (cnn): TokenMixerCNN(
              (conv1): Sequential(
                (0): Conv2d(120, 120, kernel_size=(1, 1), stride=(1, 1), groups=120)
              )
              (conv3): Sequential(
                (0): Conv2d(120, 120, kernel_size=(3, 3), stride=(1, 1), padding=(1, 1), groups=120)
              )
              (conv5): Sequential(
                (0): Conv2d(120, 120, kernel_size=(5, 5), stride=(1, 1), padding=(2, 2), groups=120)
              )
              (conv7): Sequential(
                (0): Conv2d(120, 120, kernel_size=(7, 7), stride=(1, 1), padding=(3, 3), groups=120)
              )
              (gelu): GELU(approximate='none')
              (conv1x1): Conv2d(120, 120, kernel_size=(1, 1), stride=(1, 1))
              (act): GELU(approximate='none')
            )
            (drop_path): Identity()
            (norm2): LayerNorm((240,), eps=1e-05, elementwise_affine=True)
            (mlp): Mlp(
              (fc1): Linear(in_features=240, out_features=480, bias=True)
              (act): GELU(approximate='none')
              (dwconv): dwconv(
                (conv1): Sequential(
                  (0): Conv2d(480, 480, kernel_size=(1, 1), stride=(1, 1), groups=480)
                )
                (conv3): Sequential(
                  (0): Conv2d(480, 480, kernel_size=(3, 3), stride=(1, 1), padding=(1, 1), groups=480)
                )
                (conv5): Sequential(
                  (0): Conv2d(480, 480, kernel_size=(5, 5), stride=(1, 1), padding=(2, 2), groups=480)
                )
                (conv7): Sequential(
                  (0): Conv2d(480, 480, kernel_size=(7, 7), stride=(1, 1), padding=(3, 3), groups=480)
                )
                (gelu): GELU(approximate='none')
              )
              (fc2): Linear(in_features=480, out_features=240, bias=True)
              (drop): Dropout(p=0.0, inplace=False)
            )
          )
          (1-5): 5 x SwinTransformerBlock(
            (norm1): LayerNorm((240,), eps=1e-05, elementwise_affine=True)
            (attn): WindowAttention(
              (qkv): Linear(in_features=120, out_features=360, bias=True)
              (attn_drop): Dropout(p=0.0, inplace=False)
              (proj): Linear(in_features=120, out_features=120, bias=True)
              (proj_drop): Dropout(p=0.0, inplace=False)
              (softmax): Softmax(dim=-1)
            )
            (cnn): TokenMixerCNN(
              (conv1): Sequential(
                (0): Conv2d(120, 120, kernel_size=(1, 1), stride=(1, 1), groups=120)
              )
              (conv3): Sequential(
                (0): Conv2d(120, 120, kernel_size=(3, 3), stride=(1, 1), padding=(1, 1), groups=120)
              )
              (conv5): Sequential(
                (0): Conv2d(120, 120, kernel_size=(5, 5), stride=(1, 1), padding=(2, 2), groups=120)
              )
              (conv7): Sequential(
                (0): Conv2d(120, 120, kernel_size=(7, 7), stride=(1, 1), padding=(3, 3), groups=120)
              )
              (gelu): GELU(approximate='none')
              (conv1x1): Conv2d(120, 120, kernel_size=(1, 1), stride=(1, 1))
              (act): GELU(approximate='none')
            )
            (drop_path): DropPath()
            (norm2): LayerNorm((240,), eps=1e-05, elementwise_affine=True)
            (mlp): Mlp(
              (fc1): Linear(in_features=240, out_features=480, bias=True)
              (act): GELU(approximate='none')
              (dwconv): dwconv(
                (conv1): Sequential(
                  (0): Conv2d(480, 480, kernel_size=(1, 1), stride=(1, 1), groups=480)
                )
                (conv3): Sequential(
                  (0): Conv2d(480, 480, kernel_size=(3, 3), stride=(1, 1), padding=(1, 1), groups=480)
                )
                (conv5): Sequential(
                  (0): Conv2d(480, 480, kernel_size=(5, 5), stride=(1, 1), padding=(2, 2), groups=480)
                )
                (conv7): Sequential(
                  (0): Conv2d(480, 480, kernel_size=(7, 7), stride=(1, 1), padding=(3, 3), groups=480)
                )
                (gelu): GELU(approximate='none')
              )
              (fc2): Linear(in_features=480, out_features=240, bias=True)
              (drop): Dropout(p=0.0, inplace=False)
            )
          )
        )
      )
      (conv): Conv2d(240, 240, kernel_size=(3, 3), stride=(1, 1), padding=(1, 1))
      (patch_embed): PatchEmbed()
      (patch_unembed): PatchUnEmbed()
    )
    (1-5): 5 x RSTB(
      (residual_group): BasicLayer(
        (blocks): ModuleList(
          (0-5): 6 x SwinTransformerBlock(
            (norm1): LayerNorm((240,), eps=1e-05, elementwise_affine=True)
            (attn): WindowAttention(
              (qkv): Linear(in_features=120, out_features=360, bias=True)
              (attn_drop): Dropout(p=0.0, inplace=False)
              (proj): Linear(in_features=120, out_features=120, bias=True)
              (proj_drop): Dropout(p=0.0, inplace=False)
              (softmax): Softmax(dim=-1)
            )
            (cnn): TokenMixerCNN(
              (conv1): Sequential(
                (0): Conv2d(120, 120, kernel_size=(1, 1), stride=(1, 1), groups=120)
              )
              (conv3): Sequential(
                (0): Conv2d(120, 120, kernel_size=(3, 3), stride=(1, 1), padding=(1, 1), groups=120)
              )
              (conv5): Sequential(
                (0): Conv2d(120, 120, kernel_size=(5, 5), stride=(1, 1), padding=(2, 2), groups=120)
              )
              (conv7): Sequential(
                (0): Conv2d(120, 120, kernel_size=(7, 7), stride=(1, 1), padding=(3, 3), groups=120)
              )
              (gelu): GELU(approximate='none')
              (conv1x1): Conv2d(120, 120, kernel_size=(1, 1), stride=(1, 1))
              (act): GELU(approximate='none')
            )
            (drop_path): DropPath()
            (norm2): LayerNorm((240,), eps=1e-05, elementwise_affine=True)
            (mlp): Mlp(
              (fc1): Linear(in_features=240, out_features=480, bias=True)
              (act): GELU(approximate='none')
              (dwconv): dwconv(
                (conv1): Sequential(
                  (0): Conv2d(480, 480, kernel_size=(1, 1), stride=(1, 1), groups=480)
                )
                (conv3): Sequential(
                  (0): Conv2d(480, 480, kernel_size=(3, 3), stride=(1, 1), padding=(1, 1), groups=480)
                )
                (conv5): Sequential(
                  (0): Conv2d(480, 480, kernel_size=(5, 5), stride=(1, 1), padding=(2, 2), groups=480)
                )
                (conv7): Sequential(
                  (0): Conv2d(480, 480, kernel_size=(7, 7), stride=(1, 1), padding=(3, 3), groups=480)
                )
                (gelu): GELU(approximate='none')
              )
              (fc2): Linear(in_features=480, out_features=240, bias=True)
              (drop): Dropout(p=0.0, inplace=False)
            )
          )
        )
      )
      (conv): Conv2d(240, 240, kernel_size=(3, 3), stride=(1, 1), padding=(1, 1))
      (patch_embed): PatchEmbed()
      (patch_unembed): PatchUnEmbed()
    )
  )
  (norm): LayerNorm((240,), eps=1e-05, elementwise_affine=True)
  (conv_after_body): Conv2d(240, 240, kernel_size=(3, 3), stride=(1, 1), padding=(1, 1))
  (conv_before_upsample): Sequential(
    (0): Conv2d(240, 64, kernel_size=(3, 3), stride=(1, 1), padding=(1, 1))
    (1): LeakyReLU(negative_slope=0.01, inplace=True)
  )
  (upsample): Upsample(
    (0): Conv2d(64, 256, kernel_size=(3, 3), stride=(1, 1), padding=(1, 1))
    (1): PixelShuffle(upscale_factor=2)
  )
  (conv_last): Conv2d(64, 3, kernel_size=(3, 3), stride=(1, 1), padding=(1, 1))
)
2023-12-22 09:26:47,627 INFO: Loading SwinIR model from /share3/home/renzihao/Pipeline/experiments/Doing/026_SwinIR_Split_{MSA+[(Multi-DWConv)+1Conv]}_MS-FFN_Dim240_DIV2K_P48W16_LR2e-4Cos/weights/net_g_360000.pth, with param key: [params].
2023-12-22 09:26:47,795 INFO: Use Exponential Moving Average with decay: 0.999
2023-12-22 09:26:48,033 INFO: Loading SwinIR model from /share3/home/renzihao/Pipeline/experiments/Doing/026_SwinIR_Split_{MSA+[(Multi-DWConv)+1Conv]}_MS-FFN_Dim240_DIV2K_P48W16_LR2e-4Cos/weights/net_g_360000.pth, with param key: [params_ema].
…
