…
2023-12-24 20:39:57,636 INFO: Number of val images/folders in Set14: 14
2023-12-24 20:39:57,641 INFO: Dataset [PairedImageDataset] - BSD100 is built.
2023-12-24 20:39:57,641 INFO: Number of val images/folders in BSD100: 100
2023-12-24 20:39:57,645 INFO: Dataset [PairedImageDataset] - Urban100 is built.
2023-12-24 20:39:57,645 INFO: Number of val images/folders in Urban100: 100
2023-12-24 20:39:57,650 INFO: Dataset [PairedImageDataset] - Manga109 is built.
2023-12-24 20:39:57,650 INFO: Number of val images/folders in Manga109: 109
2023-12-24 20:39:59,728 INFO: Network: SwinIR, with parameters: 10,267,455
2023-12-24 20:39:59,728 INFO: SwinIR(
  (conv_first): Conv2d(3, 180, kernel_size=(3, 3), stride=(1, 1), padding=(1, 1))
  (patch_embed): PatchEmbed(
    (norm): LayerNorm((180,), eps=1e-05, elementwise_affine=True)
  )
  (patch_unembed): PatchUnEmbed()
  (pos_drop): Dropout(p=0.0, inplace=False)
  (layers): ModuleList(
    (0): RSTB(
      (residual_group): BasicLayer(
        (blocks): ModuleList(
          (0): SwinTransformerBlock(
            (norm1): LayerNorm((180,), eps=1e-05, elementwise_affine=True)
            (attn): TokenMixer(
              (msa): WindowAttention(
                (qkv): Linear(in_features=90, out_features=270, bias=True)
                (attn_drop): Dropout(p=0.0, inplace=False)
                (proj): Linear(in_features=90, out_features=90, bias=True)
                (proj_drop): Dropout(p=0.0, inplace=False)
                (softmax): Softmax(dim=-1)
              )
              (cnn): TokenMixerCNN(
                (conv1): Sequential(
                  (0): Conv2d(90, 90, kernel_size=(1, 1), stride=(1, 1), groups=90)
                  (1): GELU(approximate='none')
                )
                (conv3): Sequential(
                  (0): Conv2d(90, 90, kernel_size=(3, 3), stride=(1, 1), padding=(1, 1), groups=90)
                  (1): GELU(approximate='none')
                )
                (conv5): Sequential(
                  (0): Conv2d(90, 90, kernel_size=(5, 5), stride=(1, 1), padding=(2, 2), groups=90)
                  (1): GELU(approximate='none')
                )
                (conv7): Sequential(
                  (0): Conv2d(90, 90, kernel_size=(7, 7), stride=(1, 1), padding=(3, 3), groups=90)
                  (1): GELU(approximate='none')
                )
                (conv1x1): Conv2d(90, 90, kernel_size=(1, 1), stride=(1, 1))
                (act): GELU(approximate='none')
              )
            )
            (drop_path): Identity()
            (norm2): LayerNorm((180,), eps=1e-05, elementwise_affine=True)
            (mlp): Mlp(
              (fc1): Linear(in_features=180, out_features=360, bias=True)
              (act): GELU(approximate='none')
              (dwconv): dwconv(
                (conv1): Sequential(
                  (0): Conv2d(360, 360, kernel_size=(1, 1), stride=(1, 1), groups=360)
                  (1): GELU(approximate='none')
                )
                (conv3): Sequential(
                  (0): Conv2d(360, 360, kernel_size=(3, 3), stride=(1, 1), padding=(1, 1), groups=360)
                  (1): GELU(approximate='none')
                )
                (conv5): Sequential(
                  (0): Conv2d(360, 360, kernel_size=(5, 5), stride=(1, 1), padding=(2, 2), groups=360)
                  (1): GELU(approximate='none')
                )
                (conv7): Sequential(
                  (0): Conv2d(360, 360, kernel_size=(7, 7), stride=(1, 1), padding=(3, 3), groups=360)
                  (1): GELU(approximate='none')
                )
              )
              (fc2): Linear(in_features=360, out_features=180, bias=True)
              (drop): Dropout(p=0.0, inplace=False)
            )
          )
          (1-5): 5 x SwinTransformerBlock(
            (norm1): LayerNorm((180,), eps=1e-05, elementwise_affine=True)
            (attn): TokenMixer(
              (msa): WindowAttention(
                (qkv): Linear(in_features=90, out_features=270, bias=True)
                (attn_drop): Dropout(p=0.0, inplace=False)
                (proj): Linear(in_features=90, out_features=90, bias=True)
                (proj_drop): Dropout(p=0.0, inplace=False)
                (softmax): Softmax(dim=-1)
              )
              (cnn): TokenMixerCNN(
                (conv1): Sequential(
                  (0): Conv2d(90, 90, kernel_size=(1, 1), stride=(1, 1), groups=90)
                  (1): GELU(approximate='none')
                )
                (conv3): Sequential(
                  (0): Conv2d(90, 90, kernel_size=(3, 3), stride=(1, 1), padding=(1, 1), groups=90)
                  (1): GELU(approximate='none')
                )
                (conv5): Sequential(
                  (0): Conv2d(90, 90, kernel_size=(5, 5), stride=(1, 1), padding=(2, 2), groups=90)
                  (1): GELU(approximate='none')
                )
                (conv7): Sequential(
                  (0): Conv2d(90, 90, kernel_size=(7, 7), stride=(1, 1), padding=(3, 3), groups=90)
                  (1): GELU(approximate='none')
                )
                (conv1x1): Conv2d(90, 90, kernel_size=(1, 1), stride=(1, 1))
                (act): GELU(approximate='none')
              )
            )
            (drop_path): DropPath()
            (norm2): LayerNorm((180,), eps=1e-05, elementwise_affine=True)
            (mlp): Mlp(
              (fc1): Linear(in_features=180, out_features=360, bias=True)
              (act): GELU(approximate='none')
              (dwconv): dwconv(
                (conv1): Sequential(
                  (0): Conv2d(360, 360, kernel_size=(1, 1), stride=(1, 1), groups=360)
                  (1): GELU(approximate='none')
                )
                (conv3): Sequential(
                  (0): Conv2d(360, 360, kernel_size=(3, 3), stride=(1, 1), padding=(1, 1), groups=360)
                  (1): GELU(approximate='none')
                )
                (conv5): Sequential(
                  (0): Conv2d(360, 360, kernel_size=(5, 5), stride=(1, 1), padding=(2, 2), groups=360)
                  (1): GELU(approximate='none')
                )
                (conv7): Sequential(
                  (0): Conv2d(360, 360, kernel_size=(7, 7), stride=(1, 1), padding=(3, 3), groups=360)
                  (1): GELU(approximate='none')
                )
              )
              (fc2): Linear(in_features=360, out_features=180, bias=True)
              (drop): Dropout(p=0.0, inplace=False)
            )
          )
        )
      )
      (conv): Conv2d(180, 180, kernel_size=(3, 3), stride=(1, 1), padding=(1, 1))
      (patch_embed): PatchEmbed()
      (patch_unembed): PatchUnEmbed()
    )
    (1-5): 5 x RSTB(
      (residual_group): BasicLayer(
        (blocks): ModuleList(
          (0-5): 6 x SwinTransformerBlock(
            (norm1): LayerNorm((180,), eps=1e-05, elementwise_affine=True)
            (attn): TokenMixer(
              (msa): WindowAttention(
                (qkv): Linear(in_features=90, out_features=270, bias=True)
                (attn_drop): Dropout(p=0.0, inplace=False)
                (proj): Linear(in_features=90, out_features=90, bias=True)
                (proj_drop): Dropout(p=0.0, inplace=False)
                (softmax): Softmax(dim=-1)
              )
              (cnn): TokenMixerCNN(
                (conv1): Sequential(
                  (0): Conv2d(90, 90, kernel_size=(1, 1), stride=(1, 1), groups=90)
                  (1): GELU(approximate='none')
                )
                (conv3): Sequential(
                  (0): Conv2d(90, 90, kernel_size=(3, 3), stride=(1, 1), padding=(1, 1), groups=90)
                  (1): GELU(approximate='none')
                )
                (conv5): Sequential(
                  (0): Conv2d(90, 90, kernel_size=(5, 5), stride=(1, 1), padding=(2, 2), groups=90)
                  (1): GELU(approximate='none')
                )
                (conv7): Sequential(
                  (0): Conv2d(90, 90, kernel_size=(7, 7), stride=(1, 1), padding=(3, 3), groups=90)
                  (1): GELU(approximate='none')
                )
                (conv1x1): Conv2d(90, 90, kernel_size=(1, 1), stride=(1, 1))
                (act): GELU(approximate='none')
              )
            )
            (drop_path): DropPath()
            (norm2): LayerNorm((180,), eps=1e-05, elementwise_affine=True)
            (mlp): Mlp(
              (fc1): Linear(in_features=180, out_features=360, bias=True)
              (act): GELU(approximate='none')
              (dwconv): dwconv(
                (conv1): Sequential(
                  (0): Conv2d(360, 360, kernel_size=(1, 1), stride=(1, 1), groups=360)
                  (1): GELU(approximate='none')
                )
                (conv3): Sequential(
                  (0): Conv2d(360, 360, kernel_size=(3, 3), stride=(1, 1), padding=(1, 1), groups=360)
                  (1): GELU(approximate='none')
                )
                (conv5): Sequential(
                  (0): Conv2d(360, 360, kernel_size=(5, 5), stride=(1, 1), padding=(2, 2), groups=360)
                  (1): GELU(approximate='none')
                )
                (conv7): Sequential(
                  (0): Conv2d(360, 360, kernel_size=(7, 7), stride=(1, 1), padding=(3, 3), groups=360)
                  (1): GELU(approximate='none')
                )
              )
              (fc2): Linear(in_features=360, out_features=180, bias=True)
              (drop): Dropout(p=0.0, inplace=False)
            )
          )
        )
      )
      (conv): Conv2d(180, 180, kernel_size=(3, 3), stride=(1, 1), padding=(1, 1))
      (patch_embed): PatchEmbed()
      (patch_unembed): PatchUnEmbed()
    )
  )
  (norm): LayerNorm((180,), eps=1e-05, elementwise_affine=True)
  (conv_after_body): Conv2d(180, 180, kernel_size=(3, 3), stride=(1, 1), padding=(1, 1))
  (conv_before_upsample): Sequential(
    (0): Conv2d(180, 64, kernel_size=(3, 3), stride=(1, 1), padding=(1, 1))
    (1): LeakyReLU(negative_slope=0.01, inplace=True)
  )
  (upsample): Upsample(
    (0): Conv2d(64, 256, kernel_size=(3, 3), stride=(1, 1), padding=(1, 1))
    (1): PixelShuffle(upscale_factor=2)
    (2): Conv2d(64, 256, kernel_size=(3, 3), stride=(1, 1), padding=(1, 1))
    (3): PixelShuffle(upscale_factor=2)
  )
  (conv_last): Conv2d(64, 3, kernel_size=(3, 3), stride=(1, 1), padding=(1, 1))
)
2023-12-24 20:39:59,939 INFO: Loading SwinIR model from experiments/Doing/001_SwinIR_Split_{MSA+[(Multi-DWConv)+1Conv]}_MS-FFN_DIV2K_P48W16_LR2e-4Cos/net_g_1380000.pth, with param key: [params].
2023-12-24 20:40:00,036 WARNING: Current net - loaded net:
2023-12-24 20:40:00,036 WARNING:   upsample.2.bias
2023-12-24 20:40:00,036 WARNING:   upsample.2.weight
…
