…
2023-11-24 06:39:49,121 INFO: Number of val images/folders in Set14: 14
2023-11-24 06:39:49,125 INFO: Dataset [PairedImageDataset] - BSD100 is built.
2023-11-24 06:39:49,125 INFO: Number of val images/folders in BSD100: 100
2023-11-24 06:39:49,129 INFO: Dataset [PairedImageDataset] - Urban100 is built.
2023-11-24 06:39:49,129 INFO: Number of val images/folders in Urban100: 100
2023-11-24 06:39:49,133 INFO: Dataset [PairedImageDataset] - Manga109 is built.
2023-11-24 06:39:49,133 INFO: Number of val images/folders in Manga109: 109
2023-11-24 06:39:53,354 INFO: Network: SwinIR, with parameters: 12,267,593
2023-11-24 06:39:53,354 INFO: SwinIR(
  (conv_first): Conv2d(3, 180, kernel_size=(3, 3), stride=(1, 1), padding=(1, 1))
  (edge_ex): EdgeExtraction(
    (hpf): Sobel(
      (conv_sobel_x): Conv2d(3, 3, kernel_size=(3, 3), stride=(1, 1), padding=(1, 1), groups=3, bias=False)
      (conv_sobel_y): Conv2d(3, 3, kernel_size=(3, 3), stride=(1, 1), padding=(1, 1), groups=3, bias=False)
    )
    (conv): Conv2d(3, 180, kernel_size=(3, 3), stride=(1, 1), padding=(1, 1))
  )
  (patch_embed): PatchEmbed(
    (norm): LayerNorm((180,), eps=1e-05, elementwise_affine=True)
  )
  (patch_unembed): PatchUnEmbed()
  (pos_drop): Dropout(p=0.0, inplace=False)
  (layers): ModuleList(
    (0): RSTB(
      (residual_group): BasicLayer(
        dim=180, input_resolution=(48, 48), depth=6
        (blocks): ModuleList(
          (0): SwinTransformerBlock(
            dim=180, input_resolution=(48, 48), num_heads=6, window_size=8, shift_size=0, mlp_ratio=2
            (norm1): LayerNorm((180,), eps=1e-05, elementwise_affine=True)
            (attn): WindowAttention(
              dim=180, window_size=(8, 8), num_heads=6
              (qk): Linear(in_features=180, out_features=360, bias=True)
              (v): Linear(in_features=180, out_features=180, bias=True)
              (attn_drop): Dropout(p=0.0, inplace=False)
              (proj): Linear(in_features=180, out_features=180, bias=True)
              (proj_drop): Dropout(p=0.0, inplace=False)
              (softmax): Softmax(dim=-1)
            )
            (conv_scale): LearnableScale()
            (conv_block): CAB(
              (cab): Sequential(
                (0): Conv2d(180, 60, kernel_size=(3, 3), stride=(1, 1), padding=(1, 1), groups=60)
                (1): GELU(approximate='none')
                (2): Conv2d(60, 180, kernel_size=(3, 3), stride=(1, 1), padding=(1, 1), groups=60)
                (3): ChannelAttention(
                  (attention): Sequential(
                    (0): AdaptiveAvgPool2d(output_size=1)
                    (1): Conv2d(180, 6, kernel_size=(1, 1), stride=(1, 1), groups=6)
                    (2): ReLU(inplace=True)
                    (3): Conv2d(6, 180, kernel_size=(1, 1), stride=(1, 1), groups=6)
                    (4): Sigmoid()
                  )
                )
              )
            )
            (drop_path): Identity()
            (norm2): LayerNorm((180,), eps=1e-05, elementwise_affine=True)
            (mlp): Mlp(
              (fc1): Linear(in_features=180, out_features=360, bias=True)
              (act): GELU(approximate='none')
              (dwconv): dwconv(
                (depthwise_conv): Sequential(
                  (0): Conv2d(360, 360, kernel_size=(5, 5), stride=(1, 1), padding=(2, 2), groups=360)
                  (1): GELU(approximate='none')
                )
              )
              (fc2): Linear(in_features=360, out_features=180, bias=True)
              (drop): Dropout(p=0.0, inplace=False)
            )
          )
          (1): SwinTransformerBlock(
            dim=180, input_resolution=(48, 48), num_heads=6, window_size=8, shift_size=4, mlp_ratio=2
            (norm1): LayerNorm((180,), eps=1e-05, elementwise_affine=True)
            (attn): WindowAttention(
              dim=180, window_size=(8, 8), num_heads=6
              (qk): Linear(in_features=180, out_features=360, bias=True)
              (v): Linear(in_features=180, out_features=180, bias=True)
              (attn_drop): Dropout(p=0.0, inplace=False)
              (proj): Linear(in_features=180, out_features=180, bias=True)
              (proj_drop): Dropout(p=0.0, inplace=False)
              (softmax): Softmax(dim=-1)
            )
            (conv_scale): LearnableScale()
            (conv_block): CAB(
              (cab): Sequential(
                (0): Conv2d(180, 60, kernel_size=(3, 3), stride=(1, 1), padding=(1, 1), groups=60)
                (1): GELU(approximate='none')
                (2): Conv2d(60, 180, kernel_size=(3, 3), stride=(1, 1), padding=(1, 1), groups=60)
                (3): ChannelAttention(
                  (attention): Sequential(
                    (0): AdaptiveAvgPool2d(output_size=1)
                    (1): Conv2d(180, 6, kernel_size=(1, 1), stride=(1, 1), groups=6)
                    (2): ReLU(inplace=True)
                    (3): Conv2d(6, 180, kernel_size=(1, 1), stride=(1, 1), groups=6)
                    (4): Sigmoid()
                  )
                )
              )
            )
            (drop_path): DropPath()
            (norm2): LayerNorm((180,), eps=1e-05, elementwise_affine=True)
            (mlp): Mlp(
              (fc1): Linear(in_features=180, out_features=360, bias=True)
              (act): GELU(approximate='none')
              (dwconv): dwconv(
                (depthwise_conv): Sequential(
                  (0): Conv2d(360, 360, kernel_size=(5, 5), stride=(1, 1), padding=(2, 2), groups=360)
                  (1): GELU(approximate='none')
                )
              )
              (fc2): Linear(in_features=360, out_features=180, bias=True)
              (drop): Dropout(p=0.0, inplace=False)
            )
          )
          (2): SwinTransformerBlock(
            dim=180, input_resolution=(48, 48), num_heads=6, window_size=8, shift_size=0, mlp_ratio=2
            (norm1): LayerNorm((180,), eps=1e-05, elementwise_affine=True)
            (attn): WindowAttention(
              dim=180, window_size=(8, 8), num_heads=6
              (qk): Linear(in_features=180, out_features=360, bias=True)
              (v): Linear(in_features=180, out_features=180, bias=True)
              (attn_drop): Dropout(p=0.0, inplace=False)
              (proj): Linear(in_features=180, out_features=180, bias=True)
              (proj_drop): Dropout(p=0.0, inplace=False)
              (softmax): Softmax(dim=-1)
            )
            (conv_scale): LearnableScale()
            (conv_block): CAB(
              (cab): Sequential(
                (0): Conv2d(180, 60, kernel_size=(3, 3), stride=(1, 1), padding=(1, 1), groups=60)
                (1): GELU(approximate='none')
                (2): Conv2d(60, 180, kernel_size=(3, 3), stride=(1, 1), padding=(1, 1), groups=60)
                (3): ChannelAttention(
                  (attention): Sequential(
                    (0): AdaptiveAvgPool2d(output_size=1)
                    (1): Conv2d(180, 6, kernel_size=(1, 1), stride=(1, 1), groups=6)
                    (2): ReLU(inplace=True)
                    (3): Conv2d(6, 180, kernel_size=(1, 1), stride=(1, 1), groups=6)
                    (4): Sigmoid()
                  )
                )
              )
            )
            (drop_path): DropPath()
            (norm2): LayerNorm((180,), eps=1e-05, elementwise_affine=True)
            (mlp): Mlp(
              (fc1): Linear(in_features=180, out_features=360, bias=True)
              (act): GELU(approximate='none')
              (dwconv): dwconv(
                (depthwise_conv): Sequential(
                  (0): Conv2d(360, 360, kernel_size=(5, 5), stride=(1, 1), padding=(2, 2), groups=360)
                  (1): GELU(approximate='none')
                )
              )
              (fc2): Linear(in_features=360, out_features=180, bias=True)
              (drop): Dropout(p=0.0, inplace=False)
            )
          )
          (3): SwinTransformerBlock(
            dim=180, input_resolution=(48, 48), num_heads=6, window_size=8, shift_size=4, mlp_ratio=2
            (norm1): LayerNorm((180,), eps=1e-05, elementwise_affine=True)
            (attn): WindowAttention(
              dim=180, window_size=(8, 8), num_heads=6
              (qk): Linear(in_features=180, out_features=360, bias=True)
              (v): Linear(in_features=180, out_features=180, bias=True)
              (attn_drop): Dropout(p=0.0, inplace=False)
              (proj): Linear(in_features=180, out_features=180, bias=True)
              (proj_drop): Dropout(p=0.0, inplace=False)
              (softmax): Softmax(dim=-1)
            )
            (conv_scale): LearnableScale()
            (conv_block): CAB(
              (cab): Sequential(
                (0): Conv2d(180, 60, kernel_size=(3, 3), stride=(1, 1), padding=(1, 1), groups=60)
                (1): GELU(approximate='none')
                (2): Conv2d(60, 180, kernel_size=(3, 3), stride=(1, 1), padding=(1, 1), groups=60)
                (3): ChannelAttention(
                  (attention): Sequential(
                    (0): AdaptiveAvgPool2d(output_size=1)
                    (1): Conv2d(180, 6, kernel_size=(1, 1), stride=(1, 1), groups=6)
                    (2): ReLU(inplace=True)
                    (3): Conv2d(6, 180, kernel_size=(1, 1), stride=(1, 1), groups=6)
                    (4): Sigmoid()
                  )
                )
              )
            )
            (drop_path): DropPath()
            (norm2): LayerNorm((180,), eps=1e-05, elementwise_affine=True)
            (mlp): Mlp(
              (fc1): Linear(in_features=180, out_features=360, bias=True)
              (act): GELU(approximate='none')
              (dwconv): dwconv(
                (depthwise_conv): Sequential(
                  (0): Conv2d(360, 360, kernel_size=(5, 5), stride=(1, 1), padding=(2, 2), groups=360)
                  (1): GELU(approximate='none')
                )
              )
              (fc2): Linear(in_features=360, out_features=180, bias=True)
              (drop): Dropout(p=0.0, inplace=False)
            )
          )
          (4): SwinTransformerBlock(
            dim=180, input_resolution=(48, 48), num_heads=6, window_size=8, shift_size=0, mlp_ratio=2
            (norm1): LayerNorm((180,), eps=1e-05, elementwise_affine=True)
            (attn): WindowAttention(
              dim=180, window_size=(8, 8), num_heads=6
              (qk): Linear(in_features=180, out_features=360, bias=True)
              (v): Linear(in_features=180, out_features=180, bias=True)
              (attn_drop): Dropout(p=0.0, inplace=False)
              (proj): Linear(in_features=180, out_features=180, bias=True)
              (proj_drop): Dropout(p=0.0, inplace=False)
              (softmax): Softmax(dim=-1)
            )
            (conv_scale): LearnableScale()
            (conv_block): CAB(
              (cab): Sequential(
                (0): Conv2d(180, 60, kernel_size=(3, 3), stride=(1, 1), padding=(1, 1), groups=60)
                (1): GELU(approximate='none')
                (2): Conv2d(60, 180, kernel_size=(3, 3), stride=(1, 1), padding=(1, 1), groups=60)
                (3): ChannelAttention(
                  (attention): Sequential(
                    (0): AdaptiveAvgPool2d(output_size=1)
                    (1): Conv2d(180, 6, kernel_size=(1, 1), stride=(1, 1), groups=6)
                    (2): ReLU(inplace=True)
                    (3): Conv2d(6, 180, kernel_size=(1, 1), stride=(1, 1), groups=6)
                    (4): Sigmoid()
                  )
                )
              )
            )
            (drop_path): DropPath()
            (norm2): LayerNorm((180,), eps=1e-05, elementwise_affine=True)
            (mlp): Mlp(
              (fc1): Linear(in_features=180, out_features=360, bias=True)
              (act): GELU(approximate='none')
              (dwconv): dwconv(
                (depthwise_conv): Sequential(
                  (0): Conv2d(360, 360, kernel_size=(5, 5), stride=(1, 1), padding=(2, 2), groups=360)
                  (1): GELU(approximate='none')
                )
              )
              (fc2): Linear(in_features=360, out_features=180, bias=True)
              (drop): Dropout(p=0.0, inplace=False)
            )
          )
          (5): SwinTransformerBlock(
            dim=180, input_resolution=(48, 48), num_heads=6, window_size=8, shift_size=4, mlp_ratio=2
            (norm1): LayerNorm((180,), eps=1e-05, elementwise_affine=True)
            (attn): WindowAttention(
              dim=180, window_size=(8, 8), num_heads=6
              (qk): Linear(in_features=180, out_features=360, bias=True)
              (v): Linear(in_features=180, out_features=180, bias=True)
              (attn_drop): Dropout(p=0.0, inplace=False)
              (proj): Linear(in_features=180, out_features=180, bias=True)
              (proj_drop): Dropout(p=0.0, inplace=False)
              (softmax): Softmax(dim=-1)
            )
            (conv_scale): LearnableScale()
            (conv_block): CAB(
              (cab): Sequential(
                (0): Conv2d(180, 60, kernel_size=(3, 3), stride=(1, 1), padding=(1, 1), groups=60)
                (1): GELU(approximate='none')
                (2): Conv2d(60, 180, kernel_size=(3, 3), stride=(1, 1), padding=(1, 1), groups=60)
                (3): ChannelAttention(
                  (attention): Sequential(
                    (0): AdaptiveAvgPool2d(output_size=1)
                    (1): Conv2d(180, 6, kernel_size=(1, 1), stride=(1, 1), groups=6)
                    (2): ReLU(inplace=True)
                    (3): Conv2d(6, 180, kernel_size=(1, 1), stride=(1, 1), groups=6)
                    (4): Sigmoid()
                  )
                )
              )
            )
            (drop_path): DropPath()
            (norm2): LayerNorm((180,), eps=1e-05, elementwise_affine=True)
            (mlp): Mlp(
              (fc1): Linear(in_features=180, out_features=360, bias=True)
              (act): GELU(approximate='none')
              (dwconv): dwconv(
                (depthwise_conv): Sequential(
                  (0): Conv2d(360, 360, kernel_size=(5, 5), stride=(1, 1), padding=(2, 2), groups=360)
                  (1): GELU(approximate='none')
                )
              )
              (fc2): Linear(in_features=360, out_features=180, bias=True)
              (drop): Dropout(p=0.0, inplace=False)
            )
          )
        )
      )
      (conv): Conv2d(180, 180, kernel_size=(3, 3), stride=(1, 1), padding=(1, 1))
      (patch_embed): PatchEmbed()
      (patch_unembed): PatchUnEmbed()
    )
    (1-5): 5 x RSTB(
      (residual_group): BasicLayer(
        dim=180, input_resolution=(48, 48), depth=6
        (blocks): ModuleList(
          (0): SwinTransformerBlock(
            dim=180, input_resolution=(48, 48), num_heads=6, window_size=8, shift_size=0, mlp_ratio=2
            (norm1): LayerNorm((180,), eps=1e-05, elementwise_affine=True)
            (attn): WindowAttention(
              dim=180, window_size=(8, 8), num_heads=6
              (qk): Linear(in_features=180, out_features=360, bias=True)
              (v): Linear(in_features=180, out_features=180, bias=True)
              (attn_drop): Dropout(p=0.0, inplace=False)
              (proj): Linear(in_features=180, out_features=180, bias=True)
              (proj_drop): Dropout(p=0.0, inplace=False)
              (softmax): Softmax(dim=-1)
            )
            (conv_scale): LearnableScale()
            (conv_block): CAB(
              (cab): Sequential(
                (0): Conv2d(180, 60, kernel_size=(3, 3), stride=(1, 1), padding=(1, 1), groups=60)
                (1): GELU(approximate='none')
                (2): Conv2d(60, 180, kernel_size=(3, 3), stride=(1, 1), padding=(1, 1), groups=60)
                (3): ChannelAttention(
                  (attention): Sequential(
                    (0): AdaptiveAvgPool2d(output_size=1)
                    (1): Conv2d(180, 6, kernel_size=(1, 1), stride=(1, 1), groups=6)
                    (2): ReLU(inplace=True)
                    (3): Conv2d(6, 180, kernel_size=(1, 1), stride=(1, 1), groups=6)
                    (4): Sigmoid()
                  )
                )
              )
            )
            (drop_path): DropPath()
            (norm2): LayerNorm((180,), eps=1e-05, elementwise_affine=True)
            (mlp): Mlp(
              (fc1): Linear(in_features=180, out_features=360, bias=True)
              (act): GELU(approximate='none')
              (dwconv): dwconv(
                (depthwise_conv): Sequential(
                  (0): Conv2d(360, 360, kernel_size=(5, 5), stride=(1, 1), padding=(2, 2), groups=360)
                  (1): GELU(approximate='none')
                )
              )
              (fc2): Linear(in_features=360, out_features=180, bias=True)
              (drop): Dropout(p=0.0, inplace=False)
            )
          )
          (1): SwinTransformerBlock(
            dim=180, input_resolution=(48, 48), num_heads=6, window_size=8, shift_size=4, mlp_ratio=2
            (norm1): LayerNorm((180,), eps=1e-05, elementwise_affine=True)
            (attn): WindowAttention(
              dim=180, window_size=(8, 8), num_heads=6
              (qk): Linear(in_features=180, out_features=360, bias=True)
              (v): Linear(in_features=180, out_features=180, bias=True)
              (attn_drop): Dropout(p=0.0, inplace=False)
              (proj): Linear(in_features=180, out_features=180, bias=True)
              (proj_drop): Dropout(p=0.0, inplace=False)
              (softmax): Softmax(dim=-1)
            )
            (conv_scale): LearnableScale()
            (conv_block): CAB(
              (cab): Sequential(
                (0): Conv2d(180, 60, kernel_size=(3, 3), stride=(1, 1), padding=(1, 1), groups=60)
                (1): GELU(approximate='none')
                (2): Conv2d(60, 180, kernel_size=(3, 3), stride=(1, 1), padding=(1, 1), groups=60)
                (3): ChannelAttention(
                  (attention): Sequential(
                    (0): AdaptiveAvgPool2d(output_size=1)
                    (1): Conv2d(180, 6, kernel_size=(1, 1), stride=(1, 1), groups=6)
                    (2): ReLU(inplace=True)
                    (3): Conv2d(6, 180, kernel_size=(1, 1), stride=(1, 1), groups=6)
                    (4): Sigmoid()
                  )
                )
              )
            )
            (drop_path): DropPath()
            (norm2): LayerNorm((180,), eps=1e-05, elementwise_affine=True)
            (mlp): Mlp(
              (fc1): Linear(in_features=180, out_features=360, bias=True)
              (act): GELU(approximate='none')
              (dwconv): dwconv(
                (depthwise_conv): Sequential(
                  (0): Conv2d(360, 360, kernel_size=(5, 5), stride=(1, 1), padding=(2, 2), groups=360)
                  (1): GELU(approximate='none')
                )
              )
              (fc2): Linear(in_features=360, out_features=180, bias=True)
              (drop): Dropout(p=0.0, inplace=False)
            )
          )
          (2): SwinTransformerBlock(
            dim=180, input_resolution=(48, 48), num_heads=6, window_size=8, shift_size=0, mlp_ratio=2
            (norm1): LayerNorm((180,), eps=1e-05, elementwise_affine=True)
            (attn): WindowAttention(
              dim=180, window_size=(8, 8), num_heads=6
              (qk): Linear(in_features=180, out_features=360, bias=True)
              (v): Linear(in_features=180, out_features=180, bias=True)
              (attn_drop): Dropout(p=0.0, inplace=False)
              (proj): Linear(in_features=180, out_features=180, bias=True)
              (proj_drop): Dropout(p=0.0, inplace=False)
              (softmax): Softmax(dim=-1)
            )
            (conv_scale): LearnableScale()
            (conv_block): CAB(
              (cab): Sequential(
                (0): Conv2d(180, 60, kernel_size=(3, 3), stride=(1, 1), padding=(1, 1), groups=60)
                (1): GELU(approximate='none')
                (2): Conv2d(60, 180, kernel_size=(3, 3), stride=(1, 1), padding=(1, 1), groups=60)
                (3): ChannelAttention(
                  (attention): Sequential(
                    (0): AdaptiveAvgPool2d(output_size=1)
                    (1): Conv2d(180, 6, kernel_size=(1, 1), stride=(1, 1), groups=6)
                    (2): ReLU(inplace=True)
                    (3): Conv2d(6, 180, kernel_size=(1, 1), stride=(1, 1), groups=6)
                    (4): Sigmoid()
                  )
                )
              )
            )
            (drop_path): DropPath()
            (norm2): LayerNorm((180,), eps=1e-05, elementwise_affine=True)
            (mlp): Mlp(
              (fc1): Linear(in_features=180, out_features=360, bias=True)
              (act): GELU(approximate='none')
              (dwconv): dwconv(
                (depthwise_conv): Sequential(
                  (0): Conv2d(360, 360, kernel_size=(5, 5), stride=(1, 1), padding=(2, 2), groups=360)
                  (1): GELU(approximate='none')
                )
              )
              (fc2): Linear(in_features=360, out_features=180, bias=True)
              (drop): Dropout(p=0.0, inplace=False)
            )
          )
          (3): SwinTransformerBlock(
            dim=180, input_resolution=(48, 48), num_heads=6, window_size=8, shift_size=4, mlp_ratio=2
            (norm1): LayerNorm((180,), eps=1e-05, elementwise_affine=True)
            (attn): WindowAttention(
              dim=180, window_size=(8, 8), num_heads=6
              (qk): Linear(in_features=180, out_features=360, bias=True)
              (v): Linear(in_features=180, out_features=180, bias=True)
              (attn_drop): Dropout(p=0.0, inplace=False)
              (proj): Linear(in_features=180, out_features=180, bias=True)
              (proj_drop): Dropout(p=0.0, inplace=False)
              (softmax): Softmax(dim=-1)
            )
            (conv_scale): LearnableScale()
            (conv_block): CAB(
              (cab): Sequential(
                (0): Conv2d(180, 60, kernel_size=(3, 3), stride=(1, 1), padding=(1, 1), groups=60)
                (1): GELU(approximate='none')
                (2): Conv2d(60, 180, kernel_size=(3, 3), stride=(1, 1), padding=(1, 1), groups=60)
                (3): ChannelAttention(
                  (attention): Sequential(
                    (0): AdaptiveAvgPool2d(output_size=1)
                    (1): Conv2d(180, 6, kernel_size=(1, 1), stride=(1, 1), groups=6)
                    (2): ReLU(inplace=True)
                    (3): Conv2d(6, 180, kernel_size=(1, 1), stride=(1, 1), groups=6)
                    (4): Sigmoid()
                  )
                )
              )
            )
            (drop_path): DropPath()
            (norm2): LayerNorm((180,), eps=1e-05, elementwise_affine=True)
            (mlp): Mlp(
              (fc1): Linear(in_features=180, out_features=360, bias=True)
              (act): GELU(approximate='none')
              (dwconv): dwconv(
                (depthwise_conv): Sequential(
                  (0): Conv2d(360, 360, kernel_size=(5, 5), stride=(1, 1), padding=(2, 2), groups=360)
                  (1): GELU(approximate='none')
                )
              )
              (fc2): Linear(in_features=360, out_features=180, bias=True)
              (drop): Dropout(p=0.0, inplace=False)
            )
          )
          (4): SwinTransformerBlock(
            dim=180, input_resolution=(48, 48), num_heads=6, window_size=8, shift_size=0, mlp_ratio=2
            (norm1): LayerNorm((180,), eps=1e-05, elementwise_affine=True)
            (attn): WindowAttention(
              dim=180, window_size=(8, 8), num_heads=6
              (qk): Linear(in_features=180, out_features=360, bias=True)
              (v): Linear(in_features=180, out_features=180, bias=True)
              (attn_drop): Dropout(p=0.0, inplace=False)
              (proj): Linear(in_features=180, out_features=180, bias=True)
              (proj_drop): Dropout(p=0.0, inplace=False)
              (softmax): Softmax(dim=-1)
            )
            (conv_scale): LearnableScale()
            (conv_block): CAB(
              (cab): Sequential(
                (0): Conv2d(180, 60, kernel_size=(3, 3), stride=(1, 1), padding=(1, 1), groups=60)
                (1): GELU(approximate='none')
                (2): Conv2d(60, 180, kernel_size=(3, 3), stride=(1, 1), padding=(1, 1), groups=60)
                (3): ChannelAttention(
                  (attention): Sequential(
                    (0): AdaptiveAvgPool2d(output_size=1)
                    (1): Conv2d(180, 6, kernel_size=(1, 1), stride=(1, 1), groups=6)
                    (2): ReLU(inplace=True)
                    (3): Conv2d(6, 180, kernel_size=(1, 1), stride=(1, 1), groups=6)
                    (4): Sigmoid()
                  )
                )
              )
            )
            (drop_path): DropPath()
            (norm2): LayerNorm((180,), eps=1e-05, elementwise_affine=True)
            (mlp): Mlp(
              (fc1): Linear(in_features=180, out_features=360, bias=True)
              (act): GELU(approximate='none')
              (dwconv): dwconv(
                (depthwise_conv): Sequential(
                  (0): Conv2d(360, 360, kernel_size=(5, 5), stride=(1, 1), padding=(2, 2), groups=360)
                  (1): GELU(approximate='none')
                )
              )
              (fc2): Linear(in_features=360, out_features=180, bias=True)
              (drop): Dropout(p=0.0, inplace=False)
            )
          )
          (5): SwinTransformerBlock(
            dim=180, input_resolution=(48, 48), num_heads=6, window_size=8, shift_size=4, mlp_ratio=2
            (norm1): LayerNorm((180,), eps=1e-05, elementwise_affine=True)
            (attn): WindowAttention(
              dim=180, window_size=(8, 8), num_heads=6
              (qk): Linear(in_features=180, out_features=360, bias=True)
              (v): Linear(in_features=180, out_features=180, bias=True)
              (attn_drop): Dropout(p=0.0, inplace=False)
              (proj): Linear(in_features=180, out_features=180, bias=True)
              (proj_drop): Dropout(p=0.0, inplace=False)
              (softmax): Softmax(dim=-1)
            )
            (conv_scale): LearnableScale()
            (conv_block): CAB(
              (cab): Sequential(
                (0): Conv2d(180, 60, kernel_size=(3, 3), stride=(1, 1), padding=(1, 1), groups=60)
                (1): GELU(approximate='none')
                (2): Conv2d(60, 180, kernel_size=(3, 3), stride=(1, 1), padding=(1, 1), groups=60)
                (3): ChannelAttention(
                  (attention): Sequential(
                    (0): AdaptiveAvgPool2d(output_size=1)
                    (1): Conv2d(180, 6, kernel_size=(1, 1), stride=(1, 1), groups=6)
                    (2): ReLU(inplace=True)
                    (3): Conv2d(6, 180, kernel_size=(1, 1), stride=(1, 1), groups=6)
                    (4): Sigmoid()
                  )
                )
              )
            )
            (drop_path): DropPath()
            (norm2): LayerNorm((180,), eps=1e-05, elementwise_affine=True)
            (mlp): Mlp(
              (fc1): Linear(in_features=180, out_features=360, bias=True)
              (act): GELU(approximate='none')
              (dwconv): dwconv(
                (depthwise_conv): Sequential(
                  (0): Conv2d(360, 360, kernel_size=(5, 5), stride=(1, 1), padding=(2, 2), groups=360)
                  (1): GELU(approximate='none')
                )
              )
              (fc2): Linear(in_features=360, out_features=180, bias=True)
              (drop): Dropout(p=0.0, inplace=False)
            )
          )
        )
      )
      (conv): Conv2d(180, 180, kernel_size=(3, 3), stride=(1, 1), padding=(1, 1))
      (patch_embed): PatchEmbed()
      (patch_unembed): PatchUnEmbed()
    )
  )
  (edge_convs): ModuleList(
    (0-5): 6 x EdgeConv(
      (dwconv): Conv2d(180, 180, kernel_size=(5, 5), stride=(1, 1), padding=(2, 2), groups=180)
      (gelu): GELU(approximate='none')
    )
  )
  (norm): LayerNorm((180,), eps=1e-05, elementwise_affine=True)
  (conv_after_body): Conv2d(180, 180, kernel_size=(3, 3), stride=(1, 1), padding=(1, 1))
  (conv_before_upsample): Sequential(
    (0): Conv2d(180, 64, kernel_size=(3, 3), stride=(1, 1), padding=(1, 1))
    (1): LeakyReLU(negative_slope=0.01, inplace=True)
  )
  (upsample): Upsample(
    (0): Conv2d(64, 256, kernel_size=(3, 3), stride=(1, 1), padding=(1, 1))
    (1): PixelShuffle(upscale_factor=2)
  )
  (conv_last): Conv2d(64, 3, kernel_size=(3, 3), stride=(1, 1), padding=(1, 1))
)
2023-11-24 06:39:56,933 INFO: Loading SwinIR model from /share3/home/renzihao/Pipeline/experiments/Doing/012_SwinIR_AttnMix_DIV2K_P48W8_LR2e-4Cos_B8G1_2080ti/weights/net_g_780000.pth, with param key: [params].
2023-11-24 06:39:57,078 INFO: Use Exponential Moving Average with decay: 0.999
2023-11-24 06:39:57,207 INFO: Loading SwinIR model from /share3/home/renzihao/Pipeline/experiments/Doing/012_SwinIR_AttnMix_DIV2K_P48W8_LR2e-4Cos_B8G1_2080ti/weights/net_g_780000.pth, with param key: [params_ema].
…
